…
dict_values([PosixPath('/content/drive/MyDrive/PyTorch_BrainTumor'), 'cnn_4layers_custom', 2, 4, 0.2, PosixPath('/content/drive/MyDrive/PyTorch_BrainTumor/data/train'), PosixPath('/content/drive/MyDrive/PyTorch_BrainTumor/data/test'), PosixPath('/content/drive/MyDrive/PyTorch_BrainTumor/data/predict'), 0.001, 0.002, 100, 20, 'yes', 'final_model', '/content/drive/MyDrive/PyTorch_BrainTumor/final_model/cnn_4layers_custom_Run12.pth', 'cnn_4layers_results_Run12', 0.0, 0.0, 0.0])
######### Done initializing parameters ##### 


######### Start data download step ##### 
######### End of the data download step ##### 
######### Start of data loader creation step ##### 
######### End of data loader creation step ##### 
######### Start of training step ##### 
Device is  cuda
cnn_4layers_custom(
  (layer1): Sequential(
    (0): Conv2d(3, 64, kernel_size=(3, 3), stride=(1, 1), padding=(1, 1))
    (1): BatchNorm2d(64, eps=1e-05, momentum=0.1, affine=True, track_running_stats=True)
    (2): ReLU()
  )
  (layer2): Sequential(
    (0): Conv2d(64, 64, kernel_size=(3, 3), stride=(1, 1), padding=(1, 1))
    (1): BatchNorm2d(64, eps=1e-05, momentum=0.1, affine=True, track_running_stats=True)
    (2): ReLU()
    (3): MaxPool2d(kernel_size=2, stride=2, padding=0, dilation=1, ceil_mode=False)
  )
  (layer3): Sequential(
    (0): Conv2d(64, 128, kernel_size=(3, 3), stride=(1, 1), padding=(1, 1))
    (1): BatchNorm2d(128, eps=1e-05, momentum=0.1, affine=True, track_running_stats=True)
    (2): ReLU()
  )
  (layer4): Sequential(
    (0): Conv2d(128, 128, kernel_size=(3, 3), stride=(1, 1), padding=(1, 1))
    (1): BatchNorm2d(128, eps=1e-05, momentum=0.1, affine=True, track_running_stats=True)
    (2): ReLU()
    (3): MaxPool2d(kernel_size=2, stride=2, padding=0, dilation=1, ceil_mode=False)
  )
  (adaptivepool): AdaptiveAvgPool2d(output_size=(7, 7))
  (fc1): Sequential(
    (0): Linear(in_features=6272, out_features=896, bias=True)
    (1): ReLU()
    (2): Dropout(p=0.5, inplace=False)
  )
  (fc2): Sequential(
    (0): Linear(in_features=896, out_features=2, bias=True)
  )
)
Size of train_loader= 24
<class 'torch.Tensor'> 100  pred output= tensor([[… device='cuda:0', grad_fn=<AddmmBackward0>)  
 pred class= tensor([1, 0, 1, 0, 1, 1, 1, 1, 0, 1, 1, 1, 1, 1, 0, 1, 1, 1, 0, 1, 0, 0, 1, 1,
        1, 0, 0, 1, 1, 1, 1, 1, 0, 0, 0, 1, 1, 1, 0, 1, 0, 1, 1, 1, 1, 1, 0, 0,
        1, 1, 1, 1, 1, 1, 1, 1, 0, 1, 1, 1, 0, 0, 1, 0, 0, 0, 1, 1, 1, 1, 1, 0,
…
