…
dict_values([PosixPath('/content/drive/MyDrive/PyTorch_BrainTumor'), 'cnn_with_attention', 2, 4, 0.2, PosixPath('/content/drive/MyDrive/PyTorch_BrainTumor/data/train'), PosixPath('/content/drive/MyDrive/PyTorch_BrainTumor/data/test'), PosixPath('/content/drive/MyDrive/PyTorch_BrainTumor/data/predict'), 0.01, 0.002, 50, 20, 'yes', 'final_model', '/content/drive/MyDrive/PyTorch_BrainTumor/final_model/cnn_with_attention_Run103.pth', 'cnn_with_attention_Run103', 0.0, 0.0, 0.0])
######### Done initializing parameters ##### 


######### Start data download step ##### 
######### End of the data download step ##### 
######### Start of data loader creation step ##### 
######### End of data loader creation step ##### 
######### Start of training step ##### 
Device is  cuda
 You have called cnn with attention module: 
cnn_with_attention_head(
  (layer1): Sequential(
    (0): Conv2d(3, 64, kernel_size=(3, 3), stride=(1, 1), padding=(1, 1))
    (1): BatchNorm2d(64, eps=1e-05, momentum=0.1, affine=True, track_running_stats=True)
    (2): ReLU()
  )
  (layer2): Sequential(
    (0): Conv2d(64, 64, kernel_size=(3, 3), stride=(1, 1), padding=(1, 1))
    (1): BatchNorm2d(64, eps=1e-05, momentum=0.1, affine=True, track_running_stats=True)
    (2): ReLU()
    (3): MaxPool2d(kernel_size=2, stride=2, padding=0, dilation=1, ceil_mode=False)
  )
  (layer3): Sequential(
    (0): Conv2d(64, 128, kernel_size=(3, 3), stride=(1, 1), padding=(1, 1))
    (1): BatchNorm2d(128, eps=1e-05, momentum=0.1, affine=True, track_running_stats=True)
    (2): ReLU()
  )
  (layer4): Sequential(
    (0): Conv2d(128, 128, kernel_size=(3, 3), stride=(1, 1), padding=(1, 1))
    (1): BatchNorm2d(128, eps=1e-05, momentum=0.1, affine=True, track_running_stats=True)
    (2): ReLU()
    (3): MaxPool2d(kernel_size=2, stride=2, padding=0, dilation=1, ceil_mode=False)
  )
  (adaptivepool): AdaptiveAvgPool2d(output_size=(14, 14))
  (patch_embedding_layer): Linear(in_features=512, out_features=512, bias=True)
  (sa): SelfAttention(
    (W_q): Linear(in_features=512, out_features=512, bias=True)
    (W_k): Linear(in_features=512, out_features=512, bias=True)
    (W_v): Linear(in_features=512, out_features=512, bias=True)
    (W_o): Linear(in_features=512, out_features=512, bias=True)
  )
  (fc): Sequential(
    (0): Linear(in_features=25088, out_features=2, bias=True)
  )
)
Size of train_loader= 48
End of epoch:  0 / 20 , training accuracy= 0.5112499999999999  , val loss= 1.865854797363281  , val accuracy= 0.6516666666666666
End of epoch:  1 / 20 , training accuracy= 0.5479166666666666  , val loss= 0.8116537825266522  , val accuracy= 0.535
End of epoch:  2 / 20 , training accuracy= 0.5466666666666665  , val loss= 0.08396597544352213  , val accuracy= 0.57
…
